…
    value: deque([], maxlen=100)
ep_success_buffer:
    value: deque([], maxlen=100)
gae_lambda:
    value: 0.95
gamma:
    value: 0.99
learning_rate:
    value: 0.0003
lr_schedule:
    value: <function get_schedule_fn.<locals>.<lambda> at 0x7932c9858b80>
max_grad_norm:
    value: 0.5
n_envs:
    value: 1
n_epochs:
    value: 10
n_steps:
    value: 1024
normalize_advantage:
    value: "True"
num_timesteps:
    value: 0
observation_space:
    value: Box(0.0, 1.0, (10, 10), float32)
policy:
    value: |-
        ActorCriticCnnPolicy(
          (features_extractor): CustomCNN(
            (cnn): Sequential(
              (0): Conv2d(1, 32, kernel_size=(3, 3), stride=(1, 1), padding=(1, 1))
              (1): ReLU()
              (2): Conv2d(32, 64, kernel_size=(3, 3), stride=(1, 1), padding=(1, 1))
              (3): ReLU()
              (4): Flatten(start_dim=1, end_dim=-1)
            )
            (linear): Sequential(
              (0): Linear(in_features=6400, out_features=256, bias=True)
              (1): ReLU()
            )
          )
          (pi_features_extractor): CustomCNN(
            (cnn): Sequential(
              (0): Conv2d(1, 32, kernel_size=(3, 3), stride=(1, 1), padding=(1, 1))
              (1): ReLU()
              (2): Conv2d(32, 64, kernel_size=(3, 3), stride=(1, 1), padding=(1, 1))
              (3): ReLU()
              (4): Flatten(start_dim=1, end_dim=-1)
            )
            (linear): Sequential(
              (0): Linear(in_features=6400, out_features=256, bias=True)
              (1): ReLU()
            )
          )
          (vf_features_extractor): CustomCNN(
            (cnn): Sequential(
              (0): Conv2d(1, 32, kernel_size=(3, 3), stride=(1, 1), padding=(1, 1))
              (1): ReLU()
              (2): Conv2d(32, 64, kernel_size=(3, 3), stride=(1, 1), padding=(1, 1))
              (3): ReLU()
              (4): Flatten(start_dim=1, end_dim=-1)
            )
            (linear): Sequential(
              (0): Linear(in_features=6400, out_features=256, bias=True)
              (1): ReLU()
            )
          )
          (mlp_extractor): MlpExtractor(
            (policy_net): Sequential(
              (0): Linear(in_features=256, out_features=64, bias=True)
              (1): Tanh()
              (2): Linear(in_features=64, out_features=64, bias=True)
              (3): Tanh()
            )
            (value_net): Sequential(
              (0): Linear(in_features=256, out_features=64, bias=True)
              (1): Tanh()
              (2): Linear(in_features=64, out_features=64, bias=True)
              (3): Tanh()
            )
          )
          (action_net): Linear(in_features=64, out_features=81, bias=True)
          (value_net): Linear(in_features=64, out_features=1, bias=True)
        )
policy_class:
    value: <class 'stable_baselines3.common.policies.ActorCriticCnnPolicy'>
policy_kwargs:
    value: '{''features_extractor_class'': <class ''__main__.CustomCNN''>, ''features_extractor_kwargs'': {''features_dim'': 256}}'
rollout_buffer:
    value: <stable_baselines3.common.buffers.RolloutBuffer object at 0x7932c986d2b0>
rollout_buffer_class:
…
